saved_models/lr_20_ba_20_ga.pt (torch, 5735 bytes, 2 tensors)

weight f4 [2, 512]
0	0xbcabb4e9	-0.020960288
1	0x3d1aebc4	0.0378225
2	0x3d445fea	0.047943033
3	0xbb22ccf7	-0.0024841407
4	0x3d1f43b6	0.038882934
5	0xbc973238	-0.018456563
6	0x3d252a0e	0.04032331
7	0x3b2f5e01	0.0026758912
8	0xbabf79a5	-0.0014608396
9	0x3d07eb70	0.033183515
10	0x3c9f272b	0.019427856
11	0xbc93e478	-0.018053278
12	0xbc33716d	-0.010952336
13	0x3cb4a8de	0.022053178
14	0xbc765eb5	-0.015037228
15	0x3d5ac3e5	0.053409476
16	0x3d28a4b2	0.04117269
17	0xbb962aa4	-0.00458272
18	0xbc5ebbc1	-0.013594569
19	0x3c08e78f	0.008355989
20	0x3cf8652b	0.030321678
21	0xbcb41d80	-0.021986723
22	0x3c574c91	0.013140813
23	0x3c6f9812	0.014623659
24	0x3cbf2902	0.023334984
25	0x3ccc2bb3	0.024923181
26	0x3c8511ca	0.016243834
27	0x3ce6a11f	0.028153
28	0xbcc3ca09	-0.023900049
29	0x3c9acf59	0.0188977
30	0x3d435325	0.047686715
31	0x3cd197b7	0.025585039
32	0x3d1a6772	0.03769631
33	0xbcd03854	-0.025417484
34	0xbc9af163	-0.01891393
35	0xbd284511	-0.04108149
36	0x3cb85e6d	0.022505963
37	0xbd1f1290	-0.038836062
38	0x3d26e4a8	0.040745407
39	0x3cba171b	0.022716096
40	0x3ca812d3	0.020516789
41	0x3d301d8c	0.042996928
42	0x3d3ee77c	0.04660748
43	0xbc6c91b2	-0.014439033
44	0xbca51d39	-0.020155536
45	0xbc84b74a	-0.01620068
46	0xbcc2e979	-0.023792969
47	0xbcc2bdd1	-0.023772152
48	0x3d31ac65	0.0433773
49	0x3c7f7a4a	0.015593121
50	0xbcb6b922	-0.022305075
51	0xbc819d64	-0.01582212
52	0x3c96d420	0.018411696
53	0x3d3fa7f9	0.04679105
54	0x3cdc3af7	0.026883585
55	0x3cfa0e94	0.03052453
56	0x3cdd3dd1	0.027007015
57	0xb7deebfa	-2.6574347e-05
58	0xbc89243f	-0.016740916
59	0x3d3e168e	0.04640823
60	0xbc9cccfd	-0.019140715
61	0xbc9a1399	-0.018808173
62	0x3bf09771	0.007342272
63	0x3b92abc7	0.004476044
64	0x3d1c5599	0.03816757
65	0xbc8e6a7a	-0.017384756
66	0xbb20da94	-0.0024544345
67	0x3d349a09	0.044092212
68	0x3d1a87c0	0.037727118
69	0x3d13b3fe	0.036060326
70	0x3bc6a40e	0.0060620373
71	0xbc24e7e9	-0.010065057
72	0xbc202007	-0.009773261
73	0xbae4541e	-0.0017420088
74	0x3d372bdf	0.044719573
75	0x3d070d7e	0.03297185
76	0xbc8fb0f5	-0.017540434
77	0x3d36d5c6	0.044637464
78	0x3d667297	0.056261625
79	0x3d13d9e1	0.036096457
80	0x3ccb0743	0.024783736
81	0xbca64863	-0.020298189
82	0xbc721119	-0.014774584
83	0x3b9e8c16	0.004838477
84	0xbb6320e2	-0.003465705
85	0xbc9e2605	-0.019305239
86	0x3c97ce3a	0.018530954
87	0x3cab7c88	0.020933405
88	0x3cd35734	0.025798418
89	0xbcbe387d	-0.023220295
90	0x3d2b4dec	0.04182236
91	0xbcc83601	-0.024439814
92	0xbc2e16e4	-0.010625575
93	0x3c44cec8	0.012012191
94	0x3cf7d580	0.030253172
95	0x3d3e620b	0.04648022
96	0x3d830e17	0.06399172
97	0x3c9ba94b	0.019001624
98	0x3d4858c3	0.048912775
99	0x3cfe055f	0.03100842
100	0x3df1f233	0.11813774
101	0x3b7b8c92	0.0038383347
102	0x3d2f5103	0.04280187
103	0x3b5da814	0.0033822106
104	0x3d4f89dd	0.050668586
105	0xbd33f449	-0.04393414
106	0x3d2cb043	0.042160284
107	0x3bb5629f	0.005535438
108	0x3ccc96c2	0.02497423
109	0x3cf46fea	0.029838521
110	0x3cf9a062	0.030471984
111	0x3d4df20d	0.050279666
112	0x3c1b6d3f	0.0094864955
113	0xbbe97586	-0.0071246056
114	0x3d4b0ddc	0.049573764
115	0x3c0c8e38	0.0085788295
116	0x3cb0fd34	0.021605112
117	0xbcce6d96	-0.025198739
118	0xbc7ef6d6	-0.01556178
119	0xbd0649c5	-0.032785196
120	0xbc159717	-0.009130261
121	0xbc78a8fd	-0.015177009
122	0x3c176744	0.009240929
123	0x3d410fa4	0.047134057
124	0xbb2eefd7	-0.0026693249
125	0xbc0648fa	-0.00819611
126	0x3d3b4880	0.04572344
127	0xbd2fda7f	-0.042932983
128	0x3d145c03	0.03622056
129	0x3ca682e2	0.020326082
130	0x39b44554	0.0003438393
131	0xbc6490e3	-0.013950559
132	0xbc506f80	-0.012721896
133	0x3d1939b9	0.037408564
134	0x3c9afe71	0.018920155
135	0x3c2c0e53	0.010501462
136	0x3be8612a	0.007091661
137	0x3c7d34e2	0.015454503
138	0xba9f05f6	-0.0012132514
139	0xbc85e105	-0.01634265
140	0xbc53e57f	-0.012933134
141	0x3c91e0e0	0.017807424
142	0x3d037cd8	0.032101482
143	0xbcb8bd52	-0.022551212
144	0x3d38dc93	0.04513223
145	0xbc6f17d0	-0.01459308
146	0x3cc38bff	0.023870466
147	0x3c88cbcd	0.016698742
148	0x3caf182c	0.02137383
149	0x3ccf140d	0.025278116
150	0xbcbbc9ea	-0.022923429
151	0x3cf27900	0.029598713
152	0x3d5251bd	0.051347483
153	0x3c700b87	0.014651186
154	0x3d410d07	0.047131564
155	0x3d49297c	0.04911183
156	0xbd027633	-0.031851005
157	0xbbf2a08d	-0.007404393
158	0x3c54cd75	0.012988438
159	0x3d06646b	0.03281061
160	0xbc18fcab	-0.0093375845
161	0x3c5f1ebe	0.013618169
162	0xba464e76	-0.0007564792
163	0x3cd4cfd0	0.025977999
164	0x3c97bf35	0.018523792
165	0xbc410fe2	-0.011783572
166	0x3bbe2e4b	0.0058038584
167	0xbc27f588	-0.01025141
168	0x3c81a05b	0.015823534
169	0x3aceb529	0.0015770543
170	0xbc464ad1	-0.012102799
171	0x3d07f0db	0.033188682
172	0x3d05e143	0.03268553
173	0x3c51a620	0.012795955
174	0xbd1d4daf	-0.038404163
175	0x3c37eeb4	0.011226345
176	0x3d5b2091	0.053497855
177	0x3b761c15	0.003755336
178	0xbc835f95	-0.016036788
179	0xbc00096d	-0.007814747
180	0xbc009865	-0.007848834
181	0x3c20ca30	0.00981383
182	0x3cb9277b	0.022601834
183	0x3d1d5175	0.03840776
184	0x3c714684	0.014726285
185	0x3c4da898	0.012552403
186	0x3ccdeeab	0.02513822
187	0x3d41bcf2	0.047299333
188	0xbcbc03c2	-0.02295101
189	0xbcc39f2d	-0.023879612
190	0x3cdf65f2	0.027270291
191	0x3d5c3cd5	0.05376895
192	0x3d009b3e	0.03139805
193	0x3ce62c78	0.028097376
194	0x3d4f3b45	0.050593633
195	0xbab008c2	-0.0013430344
196	0x3be35523	0.0069376393
197	0x3c1571c4	0.009121362
198	0x3d859a3e	0.0652356
199	0x3d5a5c64	0.053310767
200	0x3c3ff80e	0.011716856
201	0xbc42ce8b	-0.011890064
202	0xbc7c3cb8	-0.015395336
203	0x3bc81f90	0.006107278
204	0x3c4d6eba	0.012538606
205	0xbbe57d69	-0.0070034754
206	0x3cf49fd5	0.02986137
207	0xbcc280f4	-0.02374313
208	0x39e7359e	0.000440997
209	0xbd0cf2e0	-0.03441131
210	0x3c906649	0.017626898
211	0xbbaeebda	-0.0053381743
212	0x3d005ed7	0.031340446
213	0x3ae9a4a9	0.0017825562
214	0x3d070130	0.032960117
215	0x3b578efa	0.0032891617
216	0x3ca96708	0.020679012
217	0xbd21dcfd	-0.03951739
218	0x3caa7087	0.02080561
219	0x3cf8c705	0.030368337
220	0x3d4fef01	0.05076504
221	0x3d2fed9f	0.042951223
222	0x3c0446c1	0.00807351
223	0xbbc3e2af	-0.0059779505
224	0x3cc69254	0.024239697
225	0x3c25e3f5	0.01012515
226	0x3cae8309	0.021302717
227	0x3d033974	0.032037213
228	0x3c17ca18	0.0092644915
229	0xbd417614	-0.04723175
230	0x3c8f59ca	0.01749887
231	0xbc352583	-0.011056307
232	0x3c4a0224	0.012329612
233	0x3cb490bf	0.022041677
234	0x39246011	0.00015676046
235	0x3cd07be8	0.025449708
236	0x3c141d06	0.009040123
237	0x3d064ace	0.032786183
238	0x3c614f76	0.013751855
239	0x3cb17785	0.021663437
240	0x3d263708	0.040579826
241	0xbca331d3	-0.019921219
242	0x3cdb60b5	0.026779512
243	0x3ba914c9	0.0051599485
244	0xbc2e0140	-0.010620415
245	0xbc9f3204	-0.019433029
246	0x3d31297c	0.043252453
247	0x3d58b5d4	0.05290778
248	0x3cb8aba9	0.022542791
249	0xbb8cf4c9	-0.0043016416
250	0xbc4a7267	-0.012356377
251	0x3c7540c5	0.014969056
252	0x3c8fdeda	0.017562319
253	0x3d0dee6d	0.03465121
254	0x3cba40f3	0.022736048
255	0xbb522977	-0.0032068172

bias f4 [2]
0	0xbc6ad21e	-0.014332322
1	0xbc311ec3	-0.010810557
