saved_models/lr_badaga.pt (torch, 7783 bytes, 2 tensors)

weight f4 [3, 512]
0	0x3f94557d	1.1588589
1	0xbdf95879	-0.12175078
2	0xbf3409df	-0.7032756
3	0x3f9191bf	1.1372603
4	0x3f2748f1	0.65345675
5	0xbf8ce926	-1.1008651
6	0xbe4bb5e6	-0.19893607
7	0x3f0171cf	0.50564283
8	0xbe9f4058	-0.31103778
9	0xbf16797f	-0.5877914
10	0x3f429fae	0.760249
11	0xbfc5bec7	-1.5448846
12	0x3f2cf377	0.67559
13	0x3f457576	0.77132356
14	0xbf8c9bcb	-1.0985044
15	0x3f980614	1.1876855
16	0x3f13a9e0	0.57681084
17	0xbf9adf6e	-1.2099435
18	0xbf96826f	-1.1758555
19	0x3f75b052	0.9597217
20	0x3e3fbb20	0.18723726
21	0xbf88ebfa	-1.0697014
22	0xbf9c25fd	-1.2199093
23	0x3e819a14	0.25312865
24	0xbf9f819a	-1.2461426
25	0x3f8e3798	1.1110716
26	0xbf769764	-0.96324754
27	0x3e8a8bf5	0.27059904
28	0xbf8c854c	-1.0978179
29	0xbf4dc32b	-0.8037593
30	0x3f8a0ad8	1.0784559
31	0x3f71fb2b	0.94523877
32	0x3f78f38a	0.9724661
33	0x3f0cc7f1	0.54992586
34	0xbde60772	-0.11231889
35	0xbe8c8d78	-0.27451682
36	0x3f808929	1.0041858
37	0xbf7cc824	-0.9874289
38	0xbeb185c2	-0.34672362
39	0xbf6b303a	-0.9187046
40	0x3f765848	0.96228456
41	0xbf976676	-1.1828144
42	0x3f9deecd	1.2338501
43	0xbf83a893	-1.028582
44	0xbf290ad3	-0.6603214
45	0xbed2f7a7	-0.4120457
46	0x3f8ec3b7	1.1153477
47	0x3f8c11a4	1.0942883
48	0x3fbf0054	1.4921975
49	0xbf8a7b9e	-1.0818975
50	0x3ebc7d44	0.3681432
51	0xbf8721fd	-1.0557247
52	0x3d142899	0.03617153
53	0x3fb0ccc2	1.3812487
54	0x3f178914	0.5919354
55	0x3f0012ad	0.50028497
56	0xbf0ebf82	-0.5576097
57	0xbee6a1c3	-0.4504529
58	0x3f9227cf	1.1418399
59	0xbc945034	-0.01810465
60	0x3eca0eb8	0.39464355
61	0x3edf0cbd	0.43564406
62	0xbb921bf1	-0.0044588973
63	0xbea63e88	-0.32469583
64	0xbeeae006	-0.4587404
65	0x3f9fb0f7	1.247588
66	0x3dc022db	0.09381648
67	0x3e0c8172	0.13721254
68	0x3f4533c7	0.7703213
69	0xbf61f98e	-0.88271415
70	0xbfd5b4e5	-1.669583
71	0x3f4c2d07	0.79756206
72	0x3efedbf4	0.49777186
73	0x3fadc278	1.3574972
74	0x3f5fbe9e	0.87400234
75	0x3e6e3a74	0.23264486
76	0x3f842faf	1.0327052
77	0x3f24896d	0.64272195
78	0xbf155e83	-0.5834734
79	0xbf145e8b	-0.5795676
80	0x3f9804b2	1.1876433
81	0x3f771617	0.9651808
82	0x3f2d793f	0.6776313
83	0xbe9343e1	-0.28762725
84	0x3f23486d	0.6378239
85	0x3f6fd5a5	0.9368537
86	0x3f182be6	0.59441984
87	0xbfa52ff7	-1.2905263
88	0xbf39140c	-0.72296214
89	0xbf68a6bb	-0.9087941
90	0x3fb0db20	1.3816872
91	0xbd64cb4e	-0.05585795
92	0xbf9fc686	-1.248246
93	0x3eb8223d	0.35963622
94	0xbf6b6714	-0.9195416
95	0x3f0073d4	0.5017674
96	0x3fb4be79	1.4120628
97	0x3c134beb	0.008990268
98	0x3eaf37cf	0.34222266
99	0x3f9d4a8a	1.2288373
100	0x3f224710	0.6338968
101	0xbf03b29a	-0.514444
102	0x3f162361	0.58647734
103	0xbdefb17a	-0.11703773
104	0x3e966974	0.2937733
105	0x3e8f5281	0.27992633
106	0x3e02ddf3	0.1277998
107	0x3f417f58	0.75584936
108	0x3f8c4ab5	1.0960299
109	0xbfa132f9	-1.2593681
110	0xbf4b4281	-0.7939835
111	0xbef8c01a	-0.48584062
112	0xbf51c466	-0.81940305
113	0xbeb9e6df	-0.36308953
114	0x3f1cc365	0.6123565
115	0x3f8bc068	1.0918093
116	0x3f0bd67b	0.54624146
117	0xbf6f8dea	-0.9357592
118	0x3e57cd8e	0.21074507
119	0x3f60bd7d	0.87789136
120	0x3f860b45	1.0472189
121	0x3f67aa7d	0.9049452
122	0x3da4e611	0.08051694
123	0xbf78d57f	-0.9720077
124	0x3dd392d3	0.10330739
125	0x3fb18311	1.3868123
126	0xbe18458d	-0.14870282
127	0xbfb4a88f	-1.411394
128	0x3e5758b7	0.21029936
129	0x3f8d1fc4	1.1025319
130	0x3f8b3500	1.0875549
131	0x3de318af	0.110886924
132	0xbeb56e5a	-0.35435754
133	0xbf90cc78	-1.1312399
134	0x3f6dfde8	0.92965555
135	0xbf63c3c9	-0.8897062
136	0x3e5f365e	0.21798083
137	0x3ea0543a	0.3131426
138	0x3dfcc0b4	0.12341443
139	0x3ef936c0	0.48674583
140	0xbfbf2431	-1.493292
141	0x3f2e3a04	0.68057275
142	0x3f6fa964	0.93617845
143	0x3f3cebb4	0.73797154
144	0x3f2e1c98	0.6801238
145	0x3fa12701	1.2590028
146	0xbf04e50a	-0.51911986
147	0xbf4313a2	-0.7620183
148	0x3d44da90	0.04806
149	0xbf88faa0	-1.0701485
150	0xbf926e24	-1.1439862
151	0xbedc02f0	-0.4297099
152	0x3f908835	1.1291567
153	0xbfb8fcda	-1.4452164
154	0xbac35749	-0.0014903332
155	0xbe3ea602	-0.18618014
156	0x3ead41a9	0.33839157
157	0xbf47a585	-0.7798694
158	0x3ea05815	0.313172
159	0x3f11de8e	0.56980217
160	0xbe9e66d8	-0.3093784
161	0xbf7cf2b8	-0.9880786
162	0x3dcbef2b	0.09957727
163	0x3fc3b52e	1.5289667
164	0x3e52f67c	0.20601839
165	0x3fb7f17e	1.4370573
166	0xbec62467	-0.38699648
167	0xbeddc7d1	-0.4331651
168	0x3fb9e07e	1.4521635
169	0x3f3c4565	0.7354339
170	0x3fb0374d	1.3766876
171	0x3f0f099f	0.55874056
172	0x3f1c294e	0.61000526
173	0x3f5ab371	0.85430056
174	0xbe57a1d8	-0.21057832
175	0x3def3c77	0.11681455
176	0xbf91fbdc	-1.1404986
177	0x3faafa3f	1.3357619
178	0xbdabf35f	-0.08396029
179	0x3eed4c62	0.46347338
180	0xbe93e679	-0.28886774
181	0xbfc9a2c0	-1.5752792
182	0x3fa6edea	1.3041356
183	0x3fa8999b	1.3171877
184	0x3f898858	1.0744734
185	0x3f9f7d13	1.2460045
186	0x3ebfbc65	0.3744842
187	0x3f1b463e	0.60654056
188	0x3ecd084c	0.40045393
189	0x3f1113e8	0.56671
190	0x3f95d82d	1.1706597
191	0x3faa07a5	1.3283583
192	0x3edc28fd	0.43000022
193	0xbf835e98	-1.0263243
194	0xbeb6fc82	-0.35739523
195	0x3f84942f	1.0357722
196	0x3fb95c15	1.4481226
197	0xbf54a5af	-0.83065313
198	0xbf6393df	-0.8889751
199	0xbeb133ee	-0.34609932
200	0x3fab52f7	1.3384694
201	0xbfafb74c	-1.3727813
202	0xbf97433a	-1.1817391
203	0x3e5fe099	0.21863021
204	0x3fb0eee3	1.3822902
205	0x3ed06a23	0.40705976
206	0xbe225688	-0.15853322
207	0x3fd41f74	1.6572099
208	0x3e98d563	0.298503
209	0x3f456a2f	0.7711515
210	0x3ee49217	0.44642708
211	0x3f12318d	0.5710686
212	0xbe8567b4	-0.26055682
213	0x3ebc8aa7	0.36824533
214	0x3f92a2d4	1.1455941
215	0x3da374a4	0.07981232
216	0x3f8ab456	1.0836284
217	0x3a52a18f	0.00080349384
218	0x3f3d5aa6	0.73966444
219	0x3e226955	0.15860493
220	0xbb20319d	-0.0024443634
221	0x3f219cd1	0.6312991
222	0x3ef13b27	0.47115442
223	0x3f9ba97c	1.2161098
224	0x3f86ad8b	1.0521711
225	0x3f1119fc	0.56680274
226	0x3ecaaae6	0.3958351
227	0xbf496438	-0.78668547
228	0xbf4298b9	-0.76014286
229	0xbda36b74	-0.079794794
230	0xbf41996c	-0.7562473
231	0xbf2ad68a	-0.6673361
232	0xbf6973d1	-0.91192347
233	0xbed81736	-0.4220521
234	0x3ec29a95	0.38008562
235	0x3fa9b3ee	1.3258035
236	0x3e67b7eb	0.22628753
237	0x3f86fb06	1.0545356
238	0x3f145dc1	0.5795556
239	0x3f58a18c	0.846215
240	0x3f130749	0.5743299
241	0xbf05568b	-0.5208518
242	0xbf7a0bc7	-0.9767422
243	0xbf929922	-1.1452982
244	0xbe9d9d1c	-0.30783927
245	0xbec853b3	-0.39126357
246	0x3f8b510e	1.0884111
247	0x3e87da24	0.26533616
248	0x3fae1844	1.3601155
249	0xbf8d4448	-1.1036463
250	0x3f985cc3	1.1903309
251	0xbf9f40ca	-1.2441647
252	0xbfc43aa6	-1.5330398
253	0x3d489630	0.048971355
254	0x3f837784	1.0270848
255	0xbf3c41a7	-0.7353768

bias f4 [3]
0	0x3e304cfd	0.17216869
1	0xbde5f582	-0.112284675
2	0xbd1bb20f	-0.038011607
