stuff/saved_models/lr_3x20da20ga.pt (torch, 5735 bytes, 2 tensors)

weight f4 [2, 512]
-2.7627718 2.3724895 -2.5472493 -0.50402915 -0.21017087 -0.3913177 1.7866158 0.23374833
2.158725 3.0143745 1.554298 2.2073493 2.6215575 0.5807448 -0.022320652 -0.46069878
0.9193402 0.71581805 0.48077533 -3.720846 1.5458394 1.4972212 2.4513993 2.1778865
1.4954407 1.962705 3.6037283 3.5858529 -1.1920456 2.7958877 0.32183585 1.2280154
2.048496 1.4483624 -0.48774484 2.192118 2.9058466 -3.1054254 -2.3534646 -0.6383183
-0.06637885 3.61817 -0.4033075 2.6135988 2.7897675 0.6854966 2.502893 0.44328073
1.7641593 0.25407988 1.9826996 0.6174222 -0.8249824 -1.6629385 1.3469222 1.2518188
1.3966163 2.4193683 -0.5109106 2.2805417 1.2665598 1.9027476 -3.2920191 1.8289124
2.7423768 3.5656745 -4.147901 -1.9658201 1.4189546 -0.88770133 1.9757501 -1.3889017
3.7716374 -3.572588 1.1199603 -0.6887341 2.5819538 -2.517297 0.26972672 3.2187293
2.8190145 2.030707 2.9166338 -1.8630275 2.475825 -1.4270962 1.3850003 3.6352472
3.3208919 -0.69872254 -1.0806977 0.649985 1.6090503 -3.1949146 -0.80801535 2.2772455
2.545372 -0.5852301 -2.9711156 -2.494121 -0.75041074 2.8911757 -0.68904406 -0.6725322
1.859457 -0.52987236 2.9483874 -3.2365096 2.512257 1.2136546 -1.7814602 1.174956
1.7014096 1.8900081 -0.7428932 1.1620289 2.5000217 2.7861707 2.3139322 -3.0346441
3.3360374 -1.1686727 -2.1025486 -0.4578532 -2.9625802 -0.013715617 -0.051735677 -2.1911414
1.7069942 2.5369608 -1.681034 -4.337881 -1.9537157 -3.3164437 1.2630607 -2.560185
3.1826432 -3.7261288 2.9609873 1.3829424 -1.485771 -2.8644118 1.3228053 -1.773919
1.3130594 2.4514935 1.0559053 2.771007 -3.0299284 -2.4461207 0.13277821 -1.7459053
-1.9325756 2.863168 0.49628624 2.897177 2.4198115 1.8385439 2.0457346 2.9074738
-1.4137474 0.9688725 0.76969963 -0.05121819 1.309693 -2.259465 2.7989607 3.0630298
-0.8610745 1.5831847 -3.3925555 -1.5393616 -0.2950847 0.5015343 2.4991481 -3.4522333
2.5104713 1.3460119 2.7360613 -1.3997358 2.5501204 2.6113598 -0.040347498 -2.5372622
-3.2447784 -3.1604178 3.5645075 2.735552 0.9862645 -2.068006 -2.6086807 -0.65525085
2.532579 -2.733713 2.9735157 -1.904937 -3.6409748 0.65981966 2.9087214 2.025158
3.1356046 0.66953266 3.1535697 3.9922314 -1.9727968 0.8547306 -0.8285829 -1.5527326
0.97651684 0.8730638 1.5810767 -0.82759506 2.2366414 -1.7214651 -2.5993974 -1.8730145
1.5045286 2.0949264 1.3920369 -2.8971422 2.897419 -0.6550192 3.8858824 -3.9820528
1.6525623 3.485947 -3.2961092 -0.32731974 -0.99489224 -3.0166087 -0.28410408 0.22959381
-1.2637286 1.7980032 -0.25950164 -1.2176286 -1.7118633 3.0782218 1.2959652 -4.120838
0.5325962 -0.49686766 3.0006044 2.254732 -2.8667881 3.2133949 1.5047338 0.77556705
0.7432157 -3.343676 -3.1231844 3.1962492 1.4847878 2.1023111 0.86485267 1.381937
00000000: 41d1 30c0 ded6 1740 2206 23c0 0e08 01bf
00000010: 0837 57be cb5a c8be d4af e43f b95b 6f3e
00000020: 8d28 0a40 83eb 4040 3df3 c63f 3645 0d40
00000030: 99c7 2740 b1ab 143f cdd9 b6bc b6e0 ebbe
00000040: e159 6b3f da3f 373f 2f28 f63e 5722 6ec0
00000050: 11de c53f f2a4 bf3f bae3 1c40 7e62 0b40
00000060: 9a6a bf3f eb39 fb3f 7ca3 6640 9d7e 6540
00000070: f394 98bf d3ef 3240 abc7 a43e 9c2f 9d3f
00000080: 8f1a 0340 f063 b93f b1b9 f9be a94b 0c40
00000090: 64f9 3940 4abf 46c0 2a9f 16c0 d468 23bf
000000a0: a2f1 87bd 1990 6740 527e cebe 3445 2740
000000b0: 8d8b 3240 b57c 2f3f 662f 2040 b1f5 e23e
000000c0: f9cf e13f c216 823e 1ac9 fd3f 620f 1e3f
000000d0: 0c32 53bf 2bdb d4bf f267 ac3f 993b a03f
000000e0: 53c4 b23f eed6 1a40 09cb 02bf 65f4 1140
000000f0: a21e a23f 3c8d f33f 71b0 52c0 cd19 ea3f
00000100: 1a83 2f40 0334 6440 9bbb 84c0 fe9f fbbf
00000110: 4ea0 b53f 6540 63bf 61e5 fc3f 88c7 b1bf
00000120: 8262 7140 48a5 64c0 dc5a 8f3f e150 30bf
00000130: bb3e 2540 651b 21c0 9f19 8a3e a9ff 4d40
00000140: bc6a 3440 1af7 0140 21aa 3a40 af77 eebf
00000150: eb73 1e40 17ab b6bf b147 b13f e4a7 6840
00000160: 7e89 5440 7bdf 32bf 4d54 8abf 6b65 263f
00000170: 5cf5 cd3f 7b79 4cc0 18da 4ebf 64be 1140
00000180: 60e7 2240 a4d1 15bf c226 3ec0 ae9f 1fc0
00000190: eb1a 40bf 0609 3940 3165 30bf 122b 2cbf
000001a0: b002 ee3f b7a5 07bf 61b2 3c40 f922 4fc0
000001b0: d2c8 2040 0959 9b3f e306 e4bf f564 963f
000001c0: cac7 d93f c9eb f13f 402e 3ebf 5dbd 943f
000001d0: 5b00 2040 9f50 3240 7717 1440 9c37 42c0
000001e0: a381 5540 1197 95bf 2890 06c0 bc6b eabe
000001f0: ea9a 3dc0 78b7 60bc cae8 53bd a93b 0cc0
00000200: c97e da3f 915d 2240 1f2c d7bf eccf 8ac0
00000210: 5b13 fabf 9d40 54c0 f9ab a13f 12da 23c0
00000220: 6db0 4b40 e578 6ec0 d180 3d40 4204 b13f
00000230: be2d bebf 8652 37c0 af51 a93f c70f e3bf
00000240: 5512 a83f 45e5 1c40 e827 873f 2e58 3140
00000250: 59ea 41c0 3e8d 1cc0 03f7 073e d379 dfbf
00000260: a35e f7bf 253e 3740 3b19 fe3e 596b 3940
00000270: 31de 1a40 6855 eb3f 51ed 0240 0d14 3a40
00000280: adf5 b4bf 0708 783f 090b 453f 2aca 51bd
00000290: 05a4 a73f 139b 10c0 2c22 3340 ae08 4440
000002a0: 616f 5cbf cca5 ca3f a11f 59c0 cd09 c5bf
000002b0: 5815 97be 8d64 003f 0bf2 1f40 64f1 5cc0
000002c0: 90ab 2040 1e4a ac3f a11b 2f40 8b2a b3bf
000002d0: 2c35 2340 8520 2740 6b43 25bd 8162 22c0
000002e0: 73aa 4fc0 4944 4ac0 e420 6440 4913 2f40
000002f0: d57b 7c3f 365a 04c0 a0f4 26c0 85be 27bf
00000300: c615 2240 27f5 2ec0 154e 3e40 fad4 f3bf
00000310: bb05 69c0 f1e9 283f 7e28 3a40 309c 0140
00000320: bfad 4840 7e66 2b3f 16d4 4940 b880 7f40
00000330: 9b84 fcbf a0cf 5a3f 021e 54bf f1bf c6bf
00000340: 02fd 793f 1c81 5f3f b960 ca3f 45dd 53bf
00000350: 2225 0f40 f858 dcbf 875c 26c0 f0be efbf
00000360: 6594 c03f 4613 0640 442e b23f c76a 39c0
00000370: 506f 3940 57af 27bf 4cb2 7840 f4d9 7ec0
00000380: 2987 d33f c119 5f40 74f3 52c0 7496 a7be
00000390: 42b1 7ebf 1e10 41c0 1776 91be a41a 6b3e
000003a0: dcc1 a1bf f824 e63f 66dd 84be 41db 9bbf
000003b0: 561e dbbf 9601 4540 30e2 a53f e8dd 83c0
000003c0: 3958 083f 7065 febe e709 4040 874d 1040
000003d0: 7579 37c0 43a8 4d40 1e9b c03f 908b 463f
000003e0: 6243 3e3f cafe 55c0 41e2 47c0 598f 4c40
000003f0: 870d be3f 448c 0640 fc66 5d3f 50e3 b03f

bias f4 [2]
-0.6052299 -0.42070338
00000000: 59f0 1abf 6f66 d7be
