stuff/saved_models/lr_babgaga_a+v.pt (torch, 7783 bytes, 2 tensors)

weight f4 [3, 512]
00000000: 95bd 0a3d 4205 823c 439c eabd 44dd bbbd
00000010: f839 13bd 6f65 cfbc faaa 0fbe 1b83 acbd
00000020: 057a cd3d ab6e d7bd 31b5 dabd 3763 1d3e
00000030: 1c60 963c 72cf b33d 24ac b03e 3cdb 96bd
00000040: 5e57 5ebe b983 e1bd e2bf c9bd b252 89bd
00000050: e308 8dbd 63b1 873e 8dca 713d 7ec6 923d
00000060: fb83 58be b04f 1e3e 9550 2f3d 04aa 3abe
00000070: f4bb 193d 9d44 45be d1ea 14bd fa5e b93d
00000080: ad5a 02bd 7f79 fcbc f328 dbbd 40bc 8dbd
00000090: 998c a43b f6ce f0be fa1a a6bb 6f8c 02be
000000a0: c907 2c3e 1969 613d eab8 08be 7ee9 1f3e
000000b0: 76d1 d73b 4114 1dbd 704a 8ebd 0dc4 c03c
000000c0: 4d09 173d ef29 aa3c 128a a83e 3e14 aa3c
000000d0: 1a57 a4bd 7f64 9b3d 4d8a 573b cc56 68be
000000e0: bc85 85bd 81c7 85be 5fa6 2d3b d66a 67bd
000000f0: c26d 65ba a8d8 863d 485d 0bbc 6395 f63d
00000100: 334f 4dbd c10b 9cbd 16ed 91bc 5a0c ab3d
00000110: 183e 87bc 7352 c6bd d596 9b3d 3d93 df3d
00000120: af21 6d3d c582 593b f31a d0bc 6ee7 923d
00000130: d156 103e a86e d73d 5842 c2bc 2f2a 80be
00000140: a685 f03d d6bc c1bd a8af 1d3d 18db 093d
00000150: c987 593c daa3 f4bd d340 80bd 4de9 a1bd
00000160: d5f4 95bd 74c5 b03d 5f4e cb3d 83b3 e5bd
00000170: 9dd4 303d 1e9d 3e3c 6eec f5bc e059 48bd
00000180: fce6 fc3d c33b f73d 30c5 d23d a794 2f3e
00000190: f7a1 013d c3d0 3f3c 20a4 91bc 2578 55bc
000001a0: 3c8f 02be 2282 19bd 6502 17bd 8ed5 903d
000001b0: b728 28bd 487d 9cbe 4c33 233c 09d1 11be
000001c0: fb99 87bc 20cf a73d 6d43 323d 4777 26be
000001d0: 11db d33e cce9 03be 3ded dd3c 2e23 983e
000001e0: 468d 22bd 9373 17be c3a7 d03b b73c 5b3d
000001f0: 284f f2bb dbca 85be 7f6a 0e3e 9a45 acbc
00000200: 36e6 41bd abdc 8d3d 49e3 e73b 61a7 9ebd
00000210: 0670 58bd 4908 88bd b7ff 363e f321 87bd
00000220: fb1a 14bd c982 eabc b1a4 eabd dfe3 8ebd
00000230: 708a fabc 67ae d4bd ea08 8fbd df1e 09bd
00000240: 979f 2a3d 3939 2b3e b7f9 473a cd08 89bd
00000250: beb3 4cbd 8f35 fb3b 79c8 28bd 11c9 98bd
00000260: c6c4 973d 4ab7 aabb 9746 10bd ac75 453d
00000270: 894b 37bd a65a a9ba 69ff c83e a645 d43d
00000280: 5267 8fbd bb57 9ebd d8c5 113c 187d 6ebe
00000290: d7f4 dfbc a1b4 983d 018f b3bd 1c35 253d
000002a0: cd9c 5c3d 5178 b33d c299 32bd 07b4 9dbd
000002b0: fc25 4ebc 0102 88be 6904 83be 2028 4fbc
000002c0: 4a87 a93b 7ff9 a9bd 4adc 803d 7054 4bbc
000002d0: 9ac0 52bd 8f82 21be fdfe d13b 1a81 dfbc
000002e0: 8ed1 fc3c a073 d4bd b6b0 87bc 2bd1 3d3e
000002f0: dd25 5f3c 6a23 a93c b13e 09be 96da 8c3c
00000300: 15d4 d33c fbbd 5d3c 056f 7bbc fb16 453d
00000310: 533b 09bd c9a6 a53d d1de c83d 4eb6 a7bd
00000320: 86fc ce3c 9231 873e b27c a4bd 6597 55bc
00000330: 39f4 d03d 4192 983c 4950 57bc cc91 b3bc
00000340: fd47 e93c 1877 2f3e 35de 003d dbe2 363d
00000350: bc2a 4ebd b8fd b93c d5d7 11bc 1f37 e9bc
00000360: 56b5 d6bd bf43 96bd 729e dc3c 3430 883c
00000370: b6bd 81bc d3b5 5dbd 82be e33c 5b52 283d
00000380: ba06 953d 81f8 06bd 123c 6a3d 251d 963c
00000390: f64a 37bd 1d97 be3c 9e61 0f3e a085 5c3d
000003a0: 3aa3 0cbe 3aaa b3bc 6a9c 583d e602 553d
000003b0: dfe4 083e c851 cc3d 28e4 7ebe 3515 0fbe
000003c0: caed 77bd 26bc 6ebd d0db 14be 8427 d13c
000003d0: f8e4 efbc dee7 f2bc b305 22be 01fc 94bc
000003e0: a8d3 153d 4f9f 9e3d cf4d 07be 7957 8b3d
000003f0: 70fc 1dbe 388e adbe 925c bdbc 361a 1e3e
0.033872206 0.015871648 -0.11455586 -0.091730624 -0.035943955 -0.025316922 -0.14030066 -0.08423444
0.10033039 -0.10519155 -0.10679091 0.15369879 0.018356375 0.087798014 0.34506333 -0.073660344
-0.21713015 -0.11011452 -0.09851052 -0.06705226 -0.06886461 0.26502523 0.059031058 0.07166766
-0.21144097 0.15460086 0.04280146 -0.18228918 0.03753276 -0.19264455 -0.03635675 0.090513185
-0.031824756 -0.030819653 -0.1070117 -0.069206715 0.0050216434 -0.470329 -0.005069134 -0.12748884
0.16799845 0.05503187 -0.13351789 0.15616414 0.006586249 -0.038349394 -0.069477916 0.023530984
0.036874104 0.020771949 0.3291784 0.020761605 -0.08024426 0.075875275 0.003288883 -0.2268936
-0.065196484 -0.26128772 0.002649687 -0.05649837 -0.0008752012 0.06584293 -0.008506127 0.12040212
-0.05012436 -0.076194294 -0.017813247 0.08351965 -0.0165091 -0.09683695 0.07597128 0.10916755
0.05789345 0.0033189517 -0.025403475 0.07173048 0.14095618 0.10519153 -0.023713276 -0.25032184
0.117442414 -0.09459846 0.038497597 0.03365621 0.013277003 -0.11945315 -0.06262364 -0.07905827
-0.07322089 0.08631411 0.099270575 -0.1121588 0.043171514 0.011634139 -0.030019965 -0.048913836
0.12348744 0.120719455 0.10291517 0.1714655 0.031648602 0.0117074875 -0.017778456 -0.013029133
-0.12749952 -0.03747762 -0.036867518 0.07071982 -0.041054454 -0.30564332 0.009960961 -0.14239897
-0.016552916 0.08193803 0.043521333 -0.16256438 0.41378072 -0.12882155 0.027090663 0.2971434
-0.03968551 -0.14790182 0.006367655 0.0535247 -0.00739469 -0.2613133 0.13907813 -0.021029282
-0.047338687 0.06926855 0.007076655 -0.07746769 -0.05284121 -0.06642205 0.17870985 -0.06598272
-0.036158543 -0.028626816 -0.11457194 -0.06977057 -0.03058359 -0.10384827 -0.06984122 -0.033476707
0.041656103 0.16721047 0.0007628458 -0.06691132 -0.049976103 0.007666297 -0.04120681 -0.074602254
0.074105784 -0.005209838 -0.03522357 0.048207924 -0.04474977 -0.0012920692 0.39257362 0.10364847
-0.07002129 -0.07731577 0.008897267 -0.23289907 -0.027338428 0.07456327 -0.0876751 0.040333852
0.053860474 0.08763183 -0.043603666 -0.07700353 -0.012582298 -0.2656403 -0.25589302 -0.012643844
0.0051735984 -0.08299541 0.06292017 -0.012410268 -0.05145321 -0.1577246 0.006408571 -0.02728324
0.030861642 -0.10373616 -0.016563755 0.18536822 0.013619867 0.02064677 -0.13402821 0.017194074
0.025857965 0.013534064 -0.015346293 0.04811762 -0.03350384 0.08088452 0.09808124 -0.08189069
0.025266897 0.26405007 -0.08031596 -0.013036584 0.10202832 0.018624427 -0.0131417 -0.021920107
0.02847671 0.17135274 0.031461913 0.04464994 -0.050333723 0.02270399 -0.008901556 -0.028468667
-0.10483806 -0.0733714 0.026931021 0.016624548 -0.015837532 -0.05412848 0.027800802 0.041094165
0.072766736 -0.032951836 0.057186194 0.018324444 -0.044749223 0.023265416 0.14002082 0.053838372
-0.13734141 -0.021931756 0.052883543 0.052004717 0.13368557 0.09976536 -0.24891722 -0.13972934
-0.060529508 -0.0582849 -0.14536977 0.025531538 -0.029283985 -0.029651579 -0.15822487 -0.018186571
0.036578804 0.077452295 -0.13213275 0.068037935 -0.15428329 -0.33897567 -0.02311543 0.15439686

bias f4 [3]
00000000: e430 3cbd 233d e0bc 5ac3 b3bc
-0.045945063 -0.027372902 -0.021943737
