stuff/saved_models/lr_bafava_a+av.pt (torch, 7783 bytes, 2 tensors)

weight f4 [3, 512]
00000000: bf9b e13d 7230 0b3f 7205 733e f41a 70be
00000010: 985c ad3e 5dfc ca3c b351 9dbd decf 76be
00000020: f8d2 2e3e 091d fc3d 61e6 2f3f df63 d5be
00000030: 2566 4fbf a951 983d cab1 923e d5f0 ccbd
00000040: 384e df3c badd b8be a098 f5be 178f 013d
00000050: 9db3 a9be 7a51 3bbf d122 8b3e 24c4 a8be
00000060: 366c 3abf 8948 4bbf 9335 8c3f 24cd 073f
00000070: c8e7 efbe 1018 b0bd 935d 263f 6181 1abe
00000080: 03f7 c43e a333 513e 44ea d33e 8eed 1ebe
00000090: 8c6b 373e 41a3 c9be 58f0 923f bbdd 2bbe
000000a0: 91e1 ce3f 4237 2cbf 908d 373d 8a6f f23c
000000b0: 0c46 1abf 3351 503e dd5b f93e 1e1e d83e
000000c0: 05a2 f23e db6a 33be 960c a83e bc34 2fbf
000000d0: 476a 4dbe e176 883f d878 69be 6207 733e
000000e0: b66b 13bf 9bcd 07bf d291 5e3e a043 023f
000000f0: 8773 ca3e 5236 40bf 8fc1 40bf c5f6 e83e
00000100: 07df 79be 3d2c 77be 9f1b b33e 8cdc 963f
00000110: 9290 753e ba1d a5be dd43 c73e 83f6 193f
00000120: 675d f5be e770 db3e b6d5 d93e 0790 ae3e
00000130: f7f3 f63e 617c 9dbe 733e c23d bea0 93bf
00000140: 5fd2 d13a b1f3 49bd ddec 963e 7f9a ba3e
00000150: fafb 463f 6490 93bd d8ba 20be 6435 093f
00000160: 96be 123f 0dd3 07be 0b2c 593f 9e1f b0be
00000170: 4368 5dbf 9119 d23e 852d 63bf 3160 7d3f
00000180: 78a3 b03f 859a fbbc 7c8d e83d fb78 ae3e
00000190: b93b e23e 4ac8 25bf 5371 663e 1e9e 70be
000001a0: 26b2 38be 887a 673d eca1 ad3c 2d21 0e3f
000001b0: 9c55 4ebf b536 aa3d a8ac bdbd 0e32 9b3c
000001c0: fbd6 03be 76b9 133f c6b4 63bb 3c50 2fbd
000001d0: cfe0 993e 7a32 15bf 114e c1be a688 e6be
000001e0: 31f9 063f 70b2 143e b5d1 eebe b9f7 21ba
000001f0: 0c81 93be 9637 be3f 7d18 39be fb16 80be
00000200: 9913 6fbe 7fe6 283f a4b8 b03e d496 813e
00000210: e3ab 47be 387b 013e 178a d33e a282 bbbe
00000220: 1048 aa3e 7ecd 243f 7968 d13d 1ea8 59bd
00000230: c7ca febe 483e 9b3e dc5a c4bd 24a9 33bd
00000240: 1e1c b6be 617d 343f 683f 213e 2e32 6abf
00000250: 61dd f23d 8db9 dbbd e725 8abe 9fc4 2f3e
00000260: e737 ddba ba61 27be db8c 09bf 73fe 21bf
00000270: b9da 933f b096 643f a632 4b3f 89c4 6bbe
00000280: 1a9b da3e 9ad9 693e bf5c 5d3f bf3b 2b3f
00000290: 00cc 5cbd b1d9 113f f003 21be 15d9 603e
000002a0: 05b6 8f3e 99a2 91bc b37c 373f c959 783e
000002b0: 91bd debe 6d50 613f 2111 a4bd 9498 473e
000002c0: 4ee5 17bf 4d9d 4dbf f7d8 113d 9396 b1be
000002d0: 9e2a 253e c87c aabe e5a6 ba3e cd66 983e
000002e0: 04b7 ea3e 8211 2c3d 7b5b cc3e 7564 fbbd
000002f0: a023 d6be e74f 4ebf 9a4f 7d3e 530f f73e
00000300: af63 a13e e082 8ebf b6dc eabe 6d73 a5be
00000310: 49f0 c0be 5051 2ebd 5048 e33c 8a89 babe
00000320: 70c5 f23e 8228 393d 25ff c7be d55d 153c
00000330: 5b60 6d3d a276 db3e bee5 e33d 19e6 703f
00000340: dd38 b9bd 7157 8c3f 54fd f53d 83da a13f
00000350: d0b0 853e 7443 133e 3037 503f 69fe 9fbe
00000360: 130a 6c3f 5e3c 983d 954d 7d3e 1d31 1bbf
00000370: 0c36 a83d effd 1dbe 564d dd3c 68c2 683e
00000380: 2738 d6be 46c8 93be 961a d83e 9671 8bbe
00000390: c8a4 1cbf 4bc0 0cbc 09d5 073e 0354 dcbe
000003a0: 936c 36bf 0306 ecbd c046 44bf 2d3c 94be
000003b0: 8b57 a93e 641c ab3e 240b 013e 1184 f8be
000003c0: 45fa b6be ef75 10bf 911b fd3d 9b5d 373d
000003d0: ac6a cc3d 06f7 383f 6d45 b8bd 09fb 653e
000003e0: 6b29 1e3f b2cd 5a3e 4574 76be 39de f4be
000003f0: eab8 ad3e 1ed0 963f f610 c23e a397 f7be
0.11016034 0.54370797 0.23732546 -0.23447782 0.33859706 0.02477854 -0.076815985 -0.24102733
0.17072666 0.123102255 0.68710905 -0.41677758 -0.81015235 0.074374504 0.28651267 -0.100068726
0.027258977 -0.36106664 -0.47968006 0.0316306 -0.33144847 -0.731712 0.27175 -0.32962143
-0.72821367 -0.79407555 1.095385 0.53047395 -0.46856523 -0.085983396 0.6498653 -0.15088417
0.38469705 0.20429854 0.41389668 -0.15520307 0.1791212 -0.39382365 1.1479597 -0.16783802
1.6162587 -0.67271817 0.04481274 0.029594202 -0.60263133 0.20343475 0.487029 0.42210478
0.47389236 -0.17521231 0.32822102 -0.6843984 -0.20060073 1.0661279 -0.22800004 0.23733285
-0.5758623 -0.53048104 0.21735314 0.5088444 0.39541265 -0.75082886 -0.75295347 0.4550077
-0.24401484 -0.2413797 0.3498201 1.1786056 0.2398093 -0.32249242 0.38918963 0.6014177
-0.47922823 0.42859575 0.4254586 0.3409426 0.48233005 -0.30758956 0.094845675 -1.153343
0.001600813 -0.049304668 0.29477587 0.36445996 0.77728236 -0.07205275 -0.15696275 0.5359709
0.5732206 -0.13264103 0.8483283 -0.34399122 -0.86487216 0.4103513 -0.8874133 0.989749
1.3799887 -0.03071333 0.11355111 0.34076676 0.4418619 -0.6475874 0.22504167 -0.23497817
-0.18036708 0.05651334 0.021195374 0.5551937 -0.8059938 0.08311216 -0.09261447 0.018944766
-0.12874977 0.57704866 -0.00347452 -0.042801127 0.30054328 -0.58280146 -0.37754872 -0.4502613
0.52723986 0.14521194 -0.4664437 -0.0006178576 -0.28809392 1.4860713 -0.18075748 -0.25017533
-0.2334732 0.6597671 0.3451587 0.25310385 -0.19499163 0.1264466 0.41316292 -0.36623102
0.33258104 0.64376056 0.10225005 -0.053138845 -0.49764082 0.30320954 -0.095876426 -0.043862477
-0.35568327 0.70503813 0.15746844 -0.9148282 0.11858631 -0.107287504 -0.26982042 0.17164849
-0.0016877622 -0.16345873 -0.53730553 -0.63278884 1.1551124 0.8929243 0.7937416 -0.23024191
0.42696458 0.22836915 0.86469644 0.6688804 -0.053905487 0.56972796 -0.15724158 0.2195781
0.28068557 -0.017777728 0.7167465 0.24253 -0.43504003 0.88013345 -0.080110796 0.19491798
-0.59334266 -0.80318147 0.035607304 -0.34685192 0.16129538 -0.33298326 0.36455455 0.2976593
0.45842755 0.042008884 0.39913544 -0.1227502 -0.41824055 -0.8059067 0.24737397 0.4825388
0.31521365 -1.113369 -0.45871514 -0.32314625 -0.37683323 -0.042558014 0.027744442 -0.3643306
0.47416258 0.045204647 -0.39061847 0.00911661 0.05795322 0.42863947 0.11127804 0.941011
-0.09044049 1.0964185 0.12011209 1.264481 0.2611146 0.143812 0.8133421 -0.31248787
0.9220287 0.07433389 0.24736626 -0.60621816 0.082134336 -0.15428899 0.027014416 0.2273041
-0.41839716 -0.28863734 0.42207783 -0.27235097 -0.61188936 -0.008590768 0.1326486 -0.43032846
-0.7125942 -0.11524584 -0.76670456 -0.2895216 0.33074602 0.33420098 0.12601906 -0.4853826
-0.35737815 -0.5642995 0.123587735 0.044767004 0.099812835 0.7225193 -0.08997617 0.22459044
0.6178195 0.21367529 -0.24067791 -0.47825792 0.3393014 1.1782262 0.37903565 -0.48357877

bias f4 [3]
00000000: a8aa 423e b121 083d c2f5 36be
0.19010413 0.033235256 -0.17867187
