stuff/saved_models/lr_babgaga_a+v+av.pt (torch, 7783 bytes, 2 tensors)

weight f4 [3, 512]
0	0x3e46f269	0.1942841
1	0xbdc96d62	-0.09835316
2	0xbee7bdfe	-0.4526214
3	0x3e369be4	0.17832905
4	0x3c29c096	0.0103608575
5	0xbbe8fb94	-0.0071100686
6	0xbe51ac81	-0.20475961
7	0x3dd3734f	0.10324728
8	0x3df02b2c	0.117269844
9	0xbe0b3d94	-0.13597709
10	0x3eabd842	0.3356343
11	0x3cf06052	0.029342804
12	0x3d3e3ce5	0.046444792
13	0x3e0973d7	0.13423096
14	0xbf1c3609	-0.6101995
15	0xbc8a3890	-0.016872674
16	0x3f3cf706	0.7381443
17	0xbe67fc3c	-0.22654814
18	0xbde914f5	-0.1138095
19	0x3c77ff22	0.015136512
20	0x3d1a7ec1	0.03771854
21	0x3e660932	0.22464445
22	0x3e9960f3	0.2995678
23	0x3dff26a9	0.12458546
24	0xbeb55db1	-0.35423043
25	0x3e961e41	0.29319957
26	0x3de85de8	0.11346036
27	0x3daed91b	0.08537503
28	0x3d33dab7	0.043909755
29	0x3ec025ad	0.37528744
30	0x3d37748d	0.044788886
31	0x3ebab670	0.36467314
32	0x3e0a88a7	0.13528691
33	0xbcfe065e	-0.031008895
34	0xbd9fcbb5	-0.07802526
35	0x3df62a0b	0.12019738
36	0x3e7d5897	0.24740826
37	0xbde20bf4	-0.11037436
38	0x3ce79fa6	0.028274368
39	0xbdd7b16d	-0.10531888
40	0x3d6ea409	0.058261905
41	0x3df08acc	0.117452234
42	0xbe71e8a8	-0.23623908
43	0x3e81b4c0	0.25333214
44	0xbe158143	-0.1460009
45	0xbc8f9271	-0.017525883
46	0x3e76152d	0.24031515
47	0x3e808be3	0.25106725
48	0x3e5a255d	0.21303315
49	0x3ceb95b2	0.028757904
50	0x3e586492	0.21132115
51	0xbe6d62a0	-0.23182154
52	0xbe51aa0c	-0.20475024
53	0x3e75cd4b	0.24004094
54	0x3e3f8d3f	0.18706225
55	0xbe1d205a	-0.15344372
56	0xbdb1888e	-0.08668624
57	0xbdc53c1f	-0.09630608
58	0xbae5dbe3	-0.0017536845
59	0xbd8a6cfe	-0.0675907
60	0x3d907294	0.07053104
61	0x3df44164	0.11926535
62	0x3ddf7491	0.10910905
63	0x3e861c2c	0.26193368
64	0x3a6cf1aa	0.00090386963
65	0x3e378b3c	0.17924207
66	0x3e86805b	0.26269802
67	0x3e22628f	0.1585791
68	0x3d1b8ee8	0.037978083
69	0xbe85c1c2	-0.26124388
70	0xbf09641f	-0.536684
71	0x3e30d644	0.17269236
72	0x3e4a0008	0.19726574
73	0xbe0a57ba	-0.13510028
74	0x3e034f97	0.1282333
75	0x3e23a300	0.15980148
76	0x3e8cf168	0.27527928
77	0x3eb0d1e5	0.34535137
78	0x3dafdd4a	0.085871294
79	0xbde761a8	-0.11297923
80	0x3e932152	0.2873636
81	0xbc887675	-0.016658047
82	0x3e21b5f5	0.15792067
83	0x3dbfd5c9	0.09366948
84	0x3e4d1bf7	0.20030199
85	0xbdfda48f	-0.12384903
86	0x3d96e876	0.07368557
87	0xbcd8a771	-0.02644703
88	0x3d3c532a	0.04597775
89	0x3d8bdcee	0.06829248
90	0x3e8a13a4	0.2696811
91	0xbe0d0e0a	-0.13774887
92	0xbea34355	-0.31887308
93	0xbdf9dd79	-0.12200446
94	0xbe1fc9cc	-0.15604323
95	0x3e683aa4	0.2267862
96	0x3e80b813	0.25140437
97	0x3e0e9e41	0.13927557
98	0x3e2d356c	0.1691491
99	0x3e3753df	0.17903088
100	0x3e06a1ac	0.1314761
101	0xbd325552	-0.0435384
102	0x3d958281	0.07300282
103	0x3e645919	0.22299613
104	0xbd928811	-0.07154859
105	0x3d21af2e	0.039473705
106	0x3a2a9a0c	0.000650794
107	0x3d3021aa	0.043000855
108	0x3dd9c97e	0.10634135
109	0xbea0226f	-0.3127627
110	0xbd3743a0	-0.044742227
111	0x3db644d7	0.08899849
112	0xbdc44990	-0.095843434
113	0x3e334f52	0.17510727
114	0x3eaedbbe	0.34152025
115	0xbe33b56b	-0.17549674
116	0x3eb999db	0.36250195
117	0xbdd59184	-0.104281455
118	0x3d8388b6	0.0642256
119	0x3ef18cc1	0.471777
120	0x3aeaa974	0.0017903284
121	0xbd4a54ad	-0.04939716
122	0xbdbd4392	-0.09241404
123	0xbe298090	-0.16552949
124	0x3ea7d555	0.32779947
125	0x3da21787	0.07914644
126	0xbe4d970e	-0.20077154
127	0xbeb5e603	-0.35527048
128	0x3990ac89	0.0002759437
129	0x3eae51f4	0.340469
130	0xbd1c45a4	-0.038152352
131	0xbe5d350e	-0.2160227
132	0x3dfeae7f	0.12435626
133	0xbd1e0107	-0.0385752
134	0x3ee54a9b	0.44783482
135	0x3e01633d	0.12635513
136	0x3d915c96	0.070977375
137	0xbe11c6a9	-0.14235939
138	0x3eb49fac	0.3527807
139	0x3d70b774	0.058768705
140	0x3d7300d2	0.059326954
141	0xbd804941	-0.06263972
142	0xbd2b577a	-0.04183147
143	0xbe0eb164	-0.13934857
144	0x3e2d1b4e	0.16904947
145	0x3d90bbdb	0.070670806
146	0x3c17e748	0.00927145
147	0xbd9a74a3	-0.07541778
148	0xbdf6b229	-0.120457
149	0x3d8726a0	0.06599164
150	0x3e952b90	0.29134798
151	0xbe44f0dd	-0.19232507
152	0x3eb50dfc	0.35362232
153	0xbe7d37d5	-0.2472833
154	0xbe0fdf2d	-0.14049979
155	0x3e2dbf31	0.16967465
156	0x3ee16002	0.4401856
157	0xbc348b95	-0.011019607
158	0x3edf86f2	0.43657643
159	0x3ec5a9e1	0.3860617
160	0xbdb1b4ab	-0.08677038
161	0xbe2296c1	-0.1587782
162	0x3e00b81c	0.12570232
163	0x3d9bc394	0.07605663
164	0xbe838205	-0.25685135
165	0xbe2ac6c4	-0.16677386
166	0xbe4a028b	-0.19727533
167	0x3d258701	0.040411953
168	0x3e47a914	0.19498092
169	0x3de837d6	0.11338775
170	0x3e66187a	0.22470275
171	0xbd557cb7	-0.05212089
172	0x3e6e5b88	0.23277104
173	0x3d6b0c4d	0.057384778
174	0x3dd3689e	0.103226885
175	0x3dda3935	0.106554426
176	0x3e1a3958	0.15060937
177	0xbce79183	-0.028267628
178	0xbe86baca	-0.26314384
179	0xbe4fd0dc	-0.20294517
180	0x3c411423	0.011784586
181	0x3e004258	0.12525308
182	0x3ece2c9c	0.4026841
183	0xbe26a0d7	-0.16272293
184	0x3df01bf3	0.11724081
185	0xbe289bb4	-0.16465646
186	0x3da63d4a	0.08117159
187	0x3df43805	0.119247474
188	0x3d55d584	0.052205577
189	0x3cd4e827	0.025989605
190	0xbe982175	-0.29713026
191	0x3d709d9d	0.05874406
192	0xbeb7b8bc	-0.3588313
193	0xbcbe0ba7	-0.023198916
194	0xbdc61007	-0.09671026
195	0x3e4f3794	0.20236045
196	0xbe2173ec	-0.15766877
197	0x3e31750b	0.17329805
198	0x3e02d6ae	0.12777206
199	0xbe345feb	-0.17614715
200	0xbc37e143	-0.01122314
201	0x3db2fa2b	0.08739122
202	0xbdf19faa	-0.11798032
203	0x3cc7df57	0.024398489
204	0x3e246bcd	0.16056748
205	0x3e411044	0.18853861
206	0x3f1cc12a	0.61232245
207	0x3dc075a3	0.093974374
208	0x3e74318a	0.23847023
209	0x3e247f0b	0.16064088
210	0x3e8c4398	0.2739532
211	0x3eb7e347	0.35915586
212	0xbe14784d	-0.14499016
213	0x3d02af5c	0.031905517
214	0x3e89e64e	0.2693352
215	0xbc6a9abf	-0.014319121
216	0xbe366211	-0.17810847
217	0xbe008224	-0.12549645
218	0xbe87c084	-0.26514065
219	0x3e322277	0.1739596
220	0x3daeb0e6	0.085298344
221	0x3e5624d9	0.20912494
222	0x3ed79f06	0.42113513
223	0xbc154862	-0.009111496
224	0x3dd3a986	0.103350684
225	0x3e6d8438	0.23194969
226	0x3e44bd6f	0.19212888
227	0x3b799b9f	0.0038087142
228	0xbdc96231	-0.09833182
229	0x3c546191	0.012962715
230	0x3ebaabc7	0.3645918
231	0x3dc7da88	0.097584784
232	0xbd0bcc28	-0.034130245
233	0xbcb2bad2	-0.021817598
234	0x3deda7dc	0.11604282
235	0x3df48dc5	0.11941103
236	0x3e95633c	0.29177272
237	0x3e80d2b8	0.25160766
238	0xbe4a33af	-0.19746278
239	0xbe913deb	-0.28367552
240	0x3cfd46ca	0.030917544
241	0xbde54a84	-0.11195853
242	0xbd8d28ef	-0.06892573
243	0x3d434460	0.04767263
244	0x3e1bb87a	0.15207091
245	0x3e52fab1	0.20603444
246	0x3e0b2df9	0.13591756
247	0xbddc649c	-0.10761377
248	0x3e99928a	0.29994613
249	0x3e47085a	0.1943678
250	0xbdc7ffff	-0.09765624
251	0x3e58c809	0.21170057
252	0xbcb6a5e3	-0.022295898
253	0xbefd2b96	-0.49447316
254	0x3c266d45	0.010157888
255	0x3e93f785	0.2889978

bias f4 [3]
0	0x3d78ef1c	0.060774907
1	0xbdd07f47	-0.10180526
2	0x3c4c7277	0.012478462
