stuff/saved_models/lr_bafava_a+v+av.pt (torch, 7783 bytes, 2 tensors)

weight f4 [3, 512]
-0.030794319 0.20560671 0.70244163 0.06326267 -0.01407074 0.008407686 0.08700412 -0.1981888
0.09087326 0.0075840624 0.8803533 -0.5110733 -0.31655365 -0.2562824 0.031021979 0.088811085
-0.21977788 -0.22652447 -0.2786652 0.24852638 -0.199287 -0.2170384 0.10599857 -0.10217339
-0.8093786 -0.017961944 -0.041986007 -0.008832206 -0.21381429 -0.7973779 0.21185313 -0.104631916
0.4586228 0.24747078 0.5808224 -0.19524169 0.09131384 -1.0750123 0.73789227 -0.11686308
0.32802552 -0.18854271 -0.12587506 -0.09842207 0.039480485 0.26808307 0.57531196 0.015308443
0.27596894 -0.12323079 0.9751954 -1.6729398 -0.3151546 0.5585004 -0.11318332 -0.014076429
0.17480987 -0.74707097 0.083155185 0.26416063 0.39799353 0.027465533 -0.05083386 0.4383976
-0.15834118 -0.064364195 0.27250773 0.1639256 0.15188934 -0.0067601497 0.5042854 0.120934606
-0.09455943 0.5760921 0.20404765 -0.00063137524 0.9428716 0.041523833 -0.020884547 -0.4995454
0.10328583 0.13325354 0.22551526 0.1435347 0.36456537 -0.16613717 -0.28164297 0.19345504
0.06763202 0.06743539 1.5041999 -0.1187148 -0.38969842 0.2746593 -0.19153458 0.2314747
0.3728144 0.3043293 0.15732886 0.3795831 0.13295089 -0.25161844 0.10980037 -0.056373537
-0.06326532 0.10199526 0.06994217 0.29638597 -0.17916639 -0.2901175 -0.05385598 -0.13946019
0.039441947 0.2281038 -0.041496713 -0.30906704 0.26833016 -1.5394647 -0.13373315 -0.2549733
0.31663847 0.2540171 -0.47149378 -0.1700353 -0.9713331 0.8825393 0.2720847 0.031853754
-0.15663718 -0.27172396 0.13509572 0.16536263 -0.1328803 -0.14511777 0.44847995 -0.2742923
0.09022385 0.29238126 0.22779557 -0.1867988 -0.11327826 0.16430128 -0.115667425 -0.0024455052
-0.23604287 0.7100095 0.0094575295 -0.28961885 0.05175333 -0.00960328 -0.28236938 0.46165022
-0.06321046 -0.113311306 -0.126475 -0.11561321 0.47514415 0.08575885 1.1863229 -0.1207495
0.19959356 -0.0033182208 0.19100347 0.21320686 0.13440624 0.17079473 -0.08526546 -0.026134554
0.09467741 -0.18536313 -0.12373376 0.039492406 -0.6932974 0.23252155 -1.5706601 0.03363324
-0.16996235 0.022015776 0.8350252 -0.3361183 0.09436746 0.1802363 0.630618 0.095012486
0.23174666 0.021808613 0.09395191 -0.07899995 -0.2299511 -0.21373148 0.19381963 0.20548576
0.4835237 -0.4356637 -0.017306993 0.023498314 -0.31996974 0.26751813 0.19206427 0.1276145
0.12003579 0.22284622 -0.053373538 0.05836976 0.24182309 0.13591476 -0.27541766 0.03431823
-0.020259384 0.4754583 0.0033768096 0.52531135 0.32662392 -0.028896328 -0.11002604 0.015869692
0.8666104 0.024976201 1.2055546 -0.21743514 0.112498745 0.034392864 0.0027017782 0.21041454
-0.14572746 0.12474546 0.36047474 -0.10895418 -0.81282693 0.19536269 0.29204145 0.054504134
-0.089318216 -0.21917672 -0.115114525 -0.1553302 0.051908806 0.4827263 -0.2193099 -0.86783874
-0.234389 -0.3458371 0.3101507 0.112120874 0.11191427 0.13506448 0.059044104 0.00010078754
0.33836254 0.35867634 -0.14707102 -0.21097183 0.4196396 -0.38566923 0.1332768 -0.2012163
00000000: 5e44 fcbc 918a 523e 37d3 333f dc8f 813d
00000010: f688 66bc 64c0 093c 372f b23d 01f2 4abe
00000020: c21b ba3d ba83 f83b d55e 613f b3d5 02bf
00000030: 5213 a2be 7237 83be ce21 fe3c 96e2 b53d
00000040: 740d 61be 08f6 67be 35ad 8ebe b37d 7e3e
00000050: e411 4cbe 503f 5ebe c715 d93d 4840 d1bd
00000060: 7033 4fbf ed24 93bc 85f9 2bbd f5b4 10bc
00000070: 22f2 5abe f520 4cbf 07f0 583e 4249 d6bd
00000080: 9cd0 ea3e fb68 7d3e c7b0 143f 70ed 47be
00000090: c002 bb3d 019a 89bf 82e6 3c3f e955 efbd
000000a0: f6f2 a73e 5711 41be 64e5 00be 8391 c9bd
000000b0: 4ab6 213d 2f42 893e a547 133f 44d0 7a3c
000000c0: cd4b 8d3e 6d60 fcbd 68a6 793f e422 d6bf
000000d0: f25b a1be e2f9 0e3f a8cc e7bd d3a0 66bc
000000e0: 5c01 333e 0b40 3fbf 444d aa3d 1040 873e
000000f0: cfc5 cb3e 66ff e03c 2a37 50bd a675 e03e
00000100: 3124 22be 60d1 83bd 2286 8b3e 1ddc 273e
00000110: e188 1b3e 3f84 ddbb d918 013f 90ac f73d
00000120: 60a8 c1bd c67a 133f def1 503e e082 25ba
00000130: 0860 713f e514 2a3d 1216 abbc 6ac4 ffbe
00000140: 8587 d33d 9e73 083e 79ed 663e c3fa 123e
00000150: 50a8 ba3e dd1f 2abe 8233 90be 1419 463e
00000160: a882 8a3d 911b 8a3d 9f89 c03f bf20 f3bd
00000170: 8d86 c7be 25a0 8c3e a421 44be b407 6d3e
00000180: 87e1 be3e 0dd1 9b3e d11a 213e b758 c23e
00000190: 4724 083e 22d4 80be 04df e03d f0e7 66bd
000001a0: 4091 81bd e4e2 d03d d73d 8f3d e7bf 973e
000001b0: 6577 37be 488a 94be 1798 5cbd a7ce 0ebe
000001c0: e18d 213d 0b94 693e 75f8 29bd 093e 9ebe
000001d0: 9262 893e 2e0d c5bf 58f1 08be dc8b 82be
000001e0: 701e a23e 880e 823e a267 f1be bc1d 2ebe
000001f0: 49a9 78bf 18ee 613f b04e 8b3e 1579 023d
00000200: 7f65 20be 671f 8bbe 8856 0a3e d254 293e
00000210: c611 08be c199 14be 2a9f e53e 0a70 8cbe
00000220: 48c7 b83d ffb2 953e 3e43 693e 2f48 3fbe
00000230: 6ffe e7bd 983e 283e 0be3 ecbd c544 20bb
00000240: 39b5 71be 2fc3 353f c1f3 1a3c ec48 94be
00000250: 4dfb 533d 1357 1dbc b892 90be 6b5d ec3e
00000260: 7c74 81bd c20f e8bd aa82 01be 9ec6 ecbd
00000270: 1846 f33e 56a2 af3d 6ed9 973f 844b f7bd
00000280: 4162 4c3e 8276 59bb 6a96 433e e652 5a3e
00000290: caa1 093e d0e4 2e3e a89f aebd 2218 d6bc
000002a0: 3be6 c13d d5cf 3dbe 2068 fdbd cac2 213d
000002b0: f07b 31bf 211a 6e3e 640b c9bf 02c3 093d
000002c0: 9c0a 2ebe 6e5a b43c 36c4 553f b317 acbe
000002d0: ba43 c13d dd8f 383e 2e70 213f e895 c23d
000002e0: ff4e 6d3e faa7 b23c dc69 c03d baca a1bd
000002f0: 4d78 6bbe 6ddc 5abe a778 463e dc6a 523e
00000300: 6b90 f73e 500f dfbe 65c7 8dbc 897f c03c
00000310: 13d3 a3be 23f8 883e 7fac 443e 60ad 023e
00000320: 53d5 f53d cd31 643e 369e 5abd 2115 6f3d
00000330: 79a0 773e 3d2d 0b3e 8b03 8dbe 4691 0c3d
00000340: 02f7 a5bc 456f f33e 774d 5d3b ce7a 063f
00000350: 403b a73e feb7 ecbc 5555 e1bd 2801 823c
00000360: 2eda 5d3f e49a cc3c 9d4f 9a3f 51a7 5ebe
00000370: be65 e63d 88df 0c3d 5110 313b e976 573e
00000380: 9439 15be 8c7a ff3d 2590 b83e 5e23 dfbd
00000390: 6d15 50bf 280d 483e 7586 953e ba3f 5f3d
000003a0: 78ec b6bd dd6f 60be 2ac1 ebbd e10e 1fbe
000003b0: 549e 543d e727 f73e c692 60be ae2a 5ebf
000003c0: ac03 70be 8f11 b1be 13cc 9e3e a19f e53d
000003d0: 4f33 e53d 584e 0a3e 3bd8 713d e65d d338
000003e0: db3d ad3e 6da4 b73e c999 16be 0009 58be
000003f0: 00db d63e 7076 c5be b779 083e a50b 4ebe

bias f4 [3]
0.21008469 -0.03018878 -0.43556172
00000000: 7120 573e 764e f7bc f201 dfbe
