cache/models/lr_20_da_20_ga.pt (torch, 5735 bytes, 2 tensors)

weight f4 [2, 512]
-2.3176992 2.2807083 -2.0851295 -2.0087752 -0.7719696 -2.6543014 1.4278488 -0.005671386
1.1642276 2.6710544 1.4194978 -0.07176119 1.9069605 0.47164765 0.11754058 2.0564795
0.92181045 0.79235137 -0.32958597 -2.5832667 1.0304205 -0.20871474 0.013811741 2.1748254
1.2896364 2.1678064 2.2795434 2.610212 -0.646038 2.561439 0.653304 -0.21599461
1.5253606 1.3422681 -0.43534496 2.5326931 1.797299 -1.8285494 -1.3039554 -1.0647781
0.9426441 2.50887 0.19199683 -0.5667843 2.1311283 1.656437 1.9348335 0.34080008
1.6631519 -0.5153119 1.9479318 0.22739816 -1.1203921 -0.5833519 0.96969515 1.3012093
1.502304 2.1179237 -0.6198746 2.2208238 1.9125601 1.8474268 -2.7098687 1.9250813
0.82071054 1.2973763 -4.259067 -1.4117494 1.1281489 -1.7208177 2.1773536 -0.90800565
2.54905 -2.3332212 1.2405695 -0.97939885 2.541267 -2.3707092 0.63229173 1.8768909
1.6273323 1.1500255 1.2248142 -2.4225106 2.365615 1.4453613 0.63849175 3.0044303
0.20258503 -0.3704928 -1.3950708 -1.1887286 1.3048208 -3.105775 -1.4354203 1.2559679
2.2483594 -0.04353583 -2.8427722 -1.4911413 -0.40229952 2.6620152 -0.42936334 -1.9275608
1.2461487 -0.8631144 2.3720372 -1.5541965 1.5317603 1.2124977 -1.3068979 0.81051826
1.0261714 1.9830649 -0.5748614 2.197766 2.2890968 1.6757933 2.1210012 -1.8746773
1.2191942 2.052709 -0.94128484 1.7137738 -2.96988 -0.49386886 -0.10636347 0.35004428
2.1576571 2.3447843 -1.5183185 -3.1229744 -1.4933065 -2.275672 0.2860877 -3.1066277
3.3100042 -3.481707 2.615184 1.0974522 -2.2409077 -2.1456237 0.8026313 -1.23297
0.8125452 2.0990741 1.8779472 1.4539852 -3.0477824 -1.8312486 -0.8333297 -1.8167907
-1.8895422 2.2775397 0.51030326 0.26431838 2.0889957 2.0401232 2.4670477 2.2887585
-2.3350537 -0.48615053 0.92496955 -1.6247164 1.8792629 -0.6495817 1.7172611 3.322453
1.8553581 0.8728435 -1.7569319 -1.9155892 0.5833654 -0.06342583 2.2611415 -3.3384075
-0.6607081 1.9740425 2.5490706 1.2924978 2.117624 -1.9301999 1.275001 -1.2002819
-2.29826 -1.7451537 2.2189934 1.9317815 0.32241446 0.75253105 -1.0657881 -0.26303303
2.1199095 -1.8809547 2.6654077 -0.9503184 -1.9541754 -1.8197162 1.797794 0.30668437
2.4476695 1.8298029 1.8620458 4.0064626 -1.22224 1.2542496 -1.3676586 -1.2214211
-0.68914104 1.2792077 1.6054348 -1.2782173 1.8877935 -2.4093716 -2.129676 -2.9321463
2.0551314 2.0415068 1.8435718 -2.8877823 2.2739758 -0.48203608 1.621845 -2.6749198
1.3458179 3.3064787 -1.9835002 -1.759745 -0.9041313 -2.4401822 -0.71891457 -1.3640667
-0.9871423 1.270825 0.45330867 -0.913256 -1.3889589 2.890336 1.6678293 -2.4503255
0.49115765 -0.76899964 1.8566225 0.34975532 -3.0540915 -1.0641375 1.820946 1.7762543
1.7575692 -1.7769848 -1.7516845 1.8348231 0.6795451 2.3318734 0.7054654 1.5055225
00000000: 2f55 14c0 20f7 1140 c372 05c0 c68f 00c0
00000010: cd9f 45bf 13e0 29c0 c0c3 b63f 09d7 b9bb
00000020: 6905 953f 8ef2 2a40 1bb2 b53f 88f7 92bd
00000030: 4817 f43f cd7b f13e 1eb9 f03d 5c9d 0340
00000040: c5fb 6b3f 8ad7 4a3f 7ebf a8be 3e54 25c0
00000050: d2e4 833f 51b9 55be a44a 623c 5730 0b40
00000060: ce12 a53f 57bd 0a40 0ae4 1140 b70d 2740
00000070: bf62 25bf 9eee 2340 ee3e 273f b12d 5dbe
00000080: 043f c33f 71cf ab3f 89e5 debe a517 2240
00000090: e50d e63f e80d eabf 03e8 a6bf a64a 88bf
000000a0: 2051 713f 5391 2040 d19a 443e c718 11bf
000000b0: 6864 0840 2106 d43f a0a8 f73f 597d ae3e
000000c0: 29e2 d43f 7beb 03bf d455 f93f 10db 683e
000000d0: 0269 8fbf 8d56 15bf f13d 783f 078e a63f
000000e0: 7f4b c03f 108c 0740 1ab0 1ebf fa21 0e40
000000f0: c5ce f43f 7b78 ec3f 7d6e 2dc0 1069 f63f
00000100: 161a 523f 6d10 a63f 474a 88c0 34b4 b4bf
00000110: 2f67 903f c143 dcbf c359 0b40 0f73 68bf
00000120: a323 2340 7f53 15c0 fbca 9e3f e2b9 7abf
00000130: 1ea4 2240 b3b9 17c0 dfdd 213f f63d f03f
00000140: 6d4c d03f 0934 933f b6c6 9c3f 6a0a 1bc0
00000150: 3c66 1740 9901 b93f 3274 233f 9648 4040
00000160: 7372 4f3e 3bb1 bdbe ae91 b2bf 4228 98bf
00000170: 5e04 a73f 05c5 46c0 dabb b7bf 8ec3 a03f
00000180: 1fe5 0f40 a052 32bd fbef 35c0 b8dd bebf
00000190: 34fa cdbe 755e 2a40 83d5 dbbe 50ba f6bf
000001a0: cd81 9f3f 11f5 5cbf 75cf 1740 e9ef c6bf
000001b0: b910 c43f 2033 9b3f 6e48 a7bf 207e 4f3f
000001c0: 9659 833f 12d5 fd3f 1e2a 13bf 33a8 0c40
000001d0: 9080 1240 6580 d63f 7cbe 0740 6df5 efbf
000001e0: 8e0e 9c3f 965f 0340 0bf8 70bf f15c db3f
000001f0: 8412 3ec0 61dc fcbe 17d5 d9bd 0139 b33e
00000200: 0e17 0a40 f210 1640 4358 c2bf d0de 47c0
00000210: ab24 bfbf 9ca4 11c0 167a 923e fdd2 46c0
00000220: 1cd7 5340 4ad4 5ec0 2d5f 2740 5079 8c3f
00000230: 086b 0fc0 e651 09c0 3f79 4d3f f6d1 9dbf
00000240: f602 503f 3b57 0640 9360 f03f 301c ba3f
00000250: de0e 43c0 5b66 eabf 1855 55bf 998c e8bf
00000260: 85dc f1bf 36c3 1140 3ca3 023f bd54 873e
00000270: 1bb2 0540 6191 0240 1ce4 1d40 057b 1240
00000280: 8571 15c0 b9e8 f8be ceca 6c3f b5f6 cfbf
00000290: b08b f03f fc4a 26bf 36cf db3f 12a3 5440
000002a0: 607c ed3f ac72 5f3f 25e3 e0bf 0732 f5bf
000002b0: 6f57 153f 67e5 81bd 8bb6 1040 78a8 55c0
000002c0: 2b24 29bf 6dad fc3f f923 2340 9170 a53f
000002d0: 2787 0740 ca10 f7bf 3c33 a33f d6a2 99bf
000002e0: b116 13c0 3261 dfbf fd03 0e40 9e44 f73f
000002f0: 8213 a53e e0a5 403f bf6b 88bf 44ac 86be
00000300: 99ac 0740 20c3 f0bf 0a96 2a40 1148 73bf
00000310: 6b22 fabf 76ec e8bf 1d1e e63f bc05 9d3e
00000320: 9ea6 1c40 fb36 ea3f 8457 ee3f f134 8040
00000330: 5c72 9cbf 408b a03f 700f afbf 8757 9cbf
00000340: 8c6b 30bf 14bd a33f e37e cd3f a09c a3bf
00000350: 38a3 f13f 2533 1ac0 9d4c 08c0 49a8 3bc0
00000360: 4687 0340 0ca8 0240 29fa eb3f 6dd1 38c0
00000370: d288 1140 6fcd f6be 9e98 cf3f e331 2bc0
00000380: c343 ac3f 599d 5340 56e3 fdbf 533f e1bf
00000390: 2675 67bf f22b 1cc0 c90a 38bf bd99 aebf
000003a0: 5cb5 7cbf 65aa a23f 1318 e83e 25cb 69bf
000003b0: 68c9 b1bf 44fb 3840 6e7b d53f 22d2 1cc0
000003c0: 0479 fb3e 29dd 44bf cea5 ed3f 2113 b33e
000003d0: 3c76 43c0 a835 88bf c214 e93f 4d5c e33f
000003e0: 07f8 e03f 3d74 e3bf 3337 e0bf 7cdb ea3f
000003f0: abf6 2d3f 6a3d 1540 6199 343f f6b4 c03f

bias f4 [2]
-0.46417475 -0.4340728
00000000: 50a8 edbe ca3e debe
