cache/models/lr_babgaga.pt (torch, 7783 bytes, 2 tensors)

weight f4 [3, 512]
000000 f2 5c 83 3f a7 a0 79 bc 0d 7e 29 be cf dc a4 3e
       1.026274 -0.015236056 -0.16551991 0.32199714
000010 82 d6 ea 3d 08 bf 9a 3d 1b 49 46 be 5e ee 0a 3a
       0.11466695 0.075559676 -0.19363825 0.00052998017
000020 9f 7d ad bc b6 30 ae bd 89 b0 5e 3e c7 b8 ee 3d
       -0.021178065 -0.085053846 0.2174703 0.11656337
000030 b9 44 57 3d c6 6a 2d 3e bd ca 32 bf 48 be d1 be
       0.052555773 0.16935262 -0.69840604 -0.40965486
000040 6c 58 ec 3d 26 41 c2 be 8c df 0f be ce 99 94 3f
       0.11540303 -0.3794033 -0.1405012 1.1609437
000050 c4 14 dd 3d c1 e5 31 bd a5 b9 23 be a5 29 a0 3d
       0.10794976 -0.043432 -0.15988787 0.07820443
000060 fb af b0 be 2d 39 0c 3e d4 ea 49 3e d0 99 3d 3e
       -0.34509262 0.13693686 0.19718486 0.18515706
000070 b6 3d c8 3c 05 f0 09 3e 5c 62 75 bb 5f 09 bb 3e
       0.024443489 0.13470466 -0.003744266 0.36530587
000080 1b 82 81 be f4 f4 3c 3e 66 80 3b be 3d de f0 3d
       -0.25294575 0.18452817 -0.18310699 0.117611386
000090 b4 f5 9b 3f 4d 77 07 3f 91 c0 c3 be 32 a7 36 3d
       1.2184358 0.52916414 -0.38232854 0.044593044
0000a0 a6 24 f4 be 9d dd 2d 3e 61 03 16 3e cd 91 1d 3e
       -0.4768421 0.1697907 0.14649726 0.1538765
0000b0 94 ff 43 3d 69 b3 4e be f8 35 4f 3e 18 3f 93 3e
       0.04785116 -0.20185627 0.20235431 0.28759074
0000c0 a1 07 a2 3e 2c 06 8e 3e da 5b 88 bd e6 43 d1 bd
       0.31646445 0.27739084 -0.06658144 -0.10218029
0000d0 4a 1e 13 be a2 fb 53 3e 8a 52 fe 3d 2d 08 5f 3d
       -0.14367023 0.20701459 0.12418087 0.054451156
0000e0 8d 4e 67 3e b9 12 67 3d c9 d9 7c 3e d2 0e 5a bd
       0.22588558 0.05641434 0.24692453 -0.05323679
0000f0 19 b8 1d bd fe bb 20 3e 10 70 b9 3e d5 2b 22 bd
       -0.038505647 0.15696713 0.3621831 -0.039592583
000100 af 50 dd 3e 64 2b 81 3f 3c d7 87 3d c6 0a ea 3d
       0.4322562 1.0091367 0.066328496 0.11427836
000110 88 b7 02 bb 76 2d a5 be 71 4b 00 bf 54 f9 ab bd
       -0.001994582 -0.32261246 -0.50115114 -0.08397165
000120 20 49 b1 3e e0 75 81 3e 08 9a 1e 3e 1b d7 7c 3e
       0.34626102 0.25285244 0.15488446 0.24691431
000130 7a 41 81 bd 92 e1 ab 3f d3 cc 29 bc 7d 64 65 3e
       -0.06311317 1.3428214 -0.010363775 0.22401614
000140 6f 12 31 3f 00 f6 a0 3e b1 af ae 3e da 17 57 3d
       0.6916875 0.31437683 0.34118417 0.05251298
000150 cf 41 cb 3d 61 28 88 bd 65 71 5f 3e 22 2d 1d 3d
       0.09924661 -0.06648327 0.218206 0.03837312
000160 98 14 c7 3e 0a 1d 0f 3d 8a d9 e3 3e 36 a6 ed 3e
       0.388829 0.034939803 0.44501907 0.4641587
000170 dd 7b af be 6c 1a a1 bc c4 20 9d bd e2 3d 44 bd
       -0.34274188 -0.01966592 -0.07672265 -0.04791058
000180 b5 5c e3 3e 51 5e 6f bc 6d 1c db 3d 41 88 1a 3e
       0.44406667 -0.014609889 0.10698781 0.15091039
000190 c1 a7 19 3d 23 38 77 3d cb 20 04 3e 7b 31 97 3e
       0.0375135 0.06035627 0.12903135 0.29529938
0001a0 b4 d9 44 3e c1 76 48 3d 71 29 48 3f 2a ea 41 3d
       0.19223672 0.048941378 0.78188235 0.047342457
0001b0 15 fc 09 3f 14 92 8a be 9f bc 59 be 7c 51 b5 bd
       0.5390027 -0.27064574 -0.2126336 -0.088534325
0001c0 f6 8f 18 be 4a d2 2c be 6c f5 56 3e 46 16 a0 3d
       -0.14898667 -0.16877094 0.20992059 0.07816748
0001d0 88 b8 33 3d 8d 1d 5b 3e bf 30 d4 bd 0f db 48 bd
       0.043877155 0.21397991 -0.1036086 -0.049037036
0001e0 25 c9 c1 be 53 bf 0e bd 76 32 07 be 70 93 c3 be
       -0.37848774 -0.03485043 -0.13202843 -0.38198423
0001f0 01 cd d9 3d 21 95 01 3e aa 20 37 be 26 7a 37 bf
       0.106348045 0.12654544 -0.17883554 -0.7167076
000200 fc 8e 4d 3d 05 37 6e 3e e5 37 21 3e f9 ea c5 be
       0.05018519 0.23263176 0.15743978 -0.38655832
000210 6a 5a 05 bd 8e 77 6d bd 03 3d 13 3f 86 87 9e bb
       -0.03255693 -0.057975344 0.5751497 -0.004837933
000220 fd 81 61 bb 1c 7c d2 3c 4a f6 cd 3d a0 05 72 3e
       -0.0034409754 0.025693946 0.100567415 0.23634958
000230 4d a8 cc 3f 23 4b b0 bd e9 57 b8 3e c5 93 25 bf
       1.5988861 -0.08608081 0.3600457 -0.64678603
000240 ef dd 20 3e 72 ad 2f 3e f1 c5 ea bd a4 c9 ad bc
       0.15709661 0.17156008 -0.114635356 -0.021214314
000250 f5 e8 a1 bb 3c ee 37 3c e8 41 d6 3d 39 3e dd bd
       -0.0049411007 0.011226233 0.10461789 -0.10802884
000260 de 1d ce 3e d2 9f 9f bf 73 ad 96 bd 4e 48 0f 3f
       0.40257162 -1.2470648 -0.073573016 0.55969703
000270 00 27 99 3d 93 1f 72 3e 89 50 8a bc ab 5c 55 3e
       0.07478142 0.23644857 -0.016884105 0.20836131
000280 37 2f dc 3d 86 6d a5 bc 3b fc 3a 3e 7f e3 88 be
       0.10751193 -0.020193826 0.18260281 -0.26736066
000290 c6 d1 f1 bd 2e 2d e9 bc 7a fc 90 3d 5f 2d 7c bd
       -0.11807589 -0.028463926 0.07079406 -0.061566707
0002a0 99 1b a2 3e 08 83 45 3e 24 5e 9e bf 87 65 e7 3d
       0.3166168 0.19288266 -1.237248 0.11298662
0002b0 ca f9 b2 3e 02 82 40 3e 64 37 25 3c da 41 59 3d
       0.349562 0.18799594 0.010084007 0.053041317
0002c0 a5 2e 06 3f d6 f3 0a 3f 19 50 9f bd 56 d4 07 bf
       0.52414924 0.54278314 -0.07778949 -0.53058374
0002d0 2a fa 43 bd 4c a9 d1 3e ca b9 7d 3e 52 e8 94 be
       -0.047845997 0.40949476 0.24777904 -0.29083496
0002e0 8e 49 95 3e 57 59 b7 bd 43 fe b8 3e ce 4e b0 3d
       0.2915768 -0.08952587 0.36131486 0.08608781
0002f0 f6 0f df 3d 9d 44 22 3e 1c 96 a0 bd 7a 7f 8a 3e
       0.10891716 0.15846486 -0.07841131 0.27050382
000300 0d b5 cd be 96 29 3f 3d aa c3 86 bd 26 ff 89 3e
       -0.40177193 0.04667052 -0.06580289 0.26952475
000310 fe c4 c9 3e e1 1c 00 3f 8c 89 89 3d 18 a5 4f 3d
       0.39408106 0.50044066 0.06715688 0.050694555
000320 cb 9f 21 3e b2 56 db be 04 94 3e 3d 35 05 23 bd
       0.15783612 -0.4283958 0.046527877 -0.039799888
000330 2e 96 1b 3f 3f d9 ff ba 3a 95 91 3e 24 7f 82 3e
       0.6077603 -0.00195197 0.28434163 0.25487626
000340 19 a8 92 3e 49 b3 47 b8 04 de 60 3d 99 f5 02 3e
       0.28643873 -4.761227e-05 0.05489923 0.12789
000350 3a c1 99 bd 6d ce d3 bd 6d a0 bb 3e 5f 3a 10 3e
       -0.07507558 -0.10342107 0.36645833 0.14084767
000360 04 32 11 3e c7 10 b1 bc 83 59 1b be 75 75 b8 3d
       0.14179236 -0.021614445 -0.15170865 0.09006778
000370 ea 18 bc 3d 44 0c 0a 3e 02 12 f5 3e 5d 6c 16 be
       0.091844395 0.13481241 0.478653 -0.14689775
000380 97 08 ff 3d 76 60 65 3d 52 4d 90 3e 60 a1 ea 3d
       0.1245281 0.056000195 0.2818399 0.11456561
000390 21 28 b3 bc 57 5b f2 bb 1e 5b 65 3e 48 0d 51 3e
       -0.02186972 -0.0073961425 0.2239804 0.20415223
0003a0 28 2e 21 3d f9 0f 19 be d5 8e 74 3d fa 1b a1 3e
       0.03935066 -0.149475 0.059706528 0.31466657
0003b0 89 c1 cf 3d ae af 0b 3e 13 6a 13 3e 97 cd 5d bf
       0.10144336 0.13641235 0.14395933 -0.8664183
0003c0 45 c5 54 3e 20 95 73 3d 68 1a 4e 3e e3 6c aa bd
       0.20778377 0.05946839 0.2012726 -0.0832155
0003d0 1b c3 08 bc c9 c8 4f 3e 99 44 56 3e 9f e8 24 be
       -0.008347298 0.20291437 0.20924605 -0.16104363
0003e0 ce 80 05 3e 1f f0 74 bf 43 6f 2c 3e b5 eb 3b 3e
       0.13037416 -0.95678896 0.16839318 0.18351634
0003f0 2d 30 02 3f 6e 30 5a be 86 ed 08 3e fb af 3a bd
       0.5085476 -0.21307537 0.13371858 -0.045577984

bias f4 [3]
000000 84 83 91 3d 60 da 03 be c3 e3 79 bb
       0.07105163 -0.12876272 -0.0038130141
